src/robots/onnx/tron_a1_policy.onnx (onnx, 752071 bytes, 10 tensors)

obs_mean f4 [40]
0	0x3de2c9e5	0.110736646
1	0x3d3d23df	0.046176787
2	0x3aa445c3	0.0012532998
3	0x3c275c63	0.010214898
4	0x3ded2b44	0.11580518
5	0xb97ec478	-0.00024296518
6	0x3c8e762c	0.017390333
7	0xbc452ba3	-0.01203433
8	0xbf7cb92f	-0.9872007
9	0x3e667299	0.22504653
10	0x3a1e7a32	0.000604543
11	0x3a9caaff	0.0011952816
12	0x3c6db943	0.014509502
13	0x3c138aa4	0.0090052225
14	0x3e4ddc2c	0.2010352
15	0xbdb2361c	-0.08701727
16	0xbb16dbbe	-0.002301916
17	0xbd84fe2a	-0.064937904
18	0xbe46862d	-0.19387121
19	0xbcb16e5c	-0.021659069
20	0x3a894c8a	0.0010475081
21	0xbc5c43a5	-0.013443862
22	0x3dbf4502	0.09339334
23	0xbd31dc9f	-0.04342329
24	0x3c19d1a5	0.009388362
25	0x3b98f4d4	0.0046678577
26	0xbdcec766	-0.10096626
27	0xbc069eb4	-0.008216549
28	0x3e36f2b7	0.17866026
29	0x3e1a1c76	0.1504992
30	0xbde1eb32	-0.11031188
31	0xbe09764a	-0.1342403
32	0xbe6dce06	-0.23223123
33	0xbe74683b	-0.23867886
34	0x3e7ccaf2	0.24686792
35	0x3b3e646a	0.002905155
36	0xbc7090d4	-0.014682967
37	0x3c70909c	0.014682915
38	0x3d7d925e	0.061907165
39	0xbd7d925f	-0.06190717

obs_std f4 [40]
0	0x3f23d099	0.6399017
1	0x3f05285f	0.52014726
2	0x3e82cb5b	0.25545773
3	0x3f36cc6f	0.7140569
4	0x3f8c5cc9	1.0965816
5	0x3f1ad305	0.6047824
6	0x3dd12289	0.10211665
7	0x3dcf3414	0.10117355
8	0x3da93b76	0.082632944
9	0x3f303a40	0.6883888
10	0x3f0c3b5c	0.54778075
11	0x3f0c48f4	0.5479882
12	0x3dc6c9b1	0.09706438
13	0x3e34b182	0.17645839
14	0x3e46df03	0.1942101
15	0x3e1637ee	0.14669773
16	0x3dd8abd2	0.10579647
17	0x3e4638e8	0.19357646
18	0x3e370111	0.178715
19	0x3e250e4b	0.16118734
20	0x3fb4e821	1.413334
21	0x3ff6f117	1.9292325
22	0x404abae2	3.1676564
23	0x405ea67f	3.478912
24	0x3fbedab4	1.4910493
25	0x4007912b	2.1182353
26	0x40583ad2	3.37859
27	0x406a3b25	3.65986
28	0x3ea71e59	0.3264034
29	0x3ec8ec5c	0.39242828
30	0x3f3996e8	0.7249589
31	0x3edb2b41	0.42806438
32	0x3ec2a3a0	0.3801546
33	0x3ebda483	0.37039575
34	0x3f2b63c9	0.66949135
35	0x3ee94d46	0.45566767
36	0x3f369089	0.71314293
37	0x3f369089	0.71314293
38	0x3f32b85d	0.69812566
39	0x3f32b85d	0.69812566

mlp.0.weight f4 [512, 40]
0	0xbe1cf4c4	-0.15327746
1	0xbde349e2	-0.110980764
2	0xbdee6b96	-0.11641614
3	0x3e016bad	0.12638731
4	0x3f164bac	0.58709216
5	0xbcec74d3	-0.0288643
6	0x3ea55e98	0.32298732
7	0xbe1c81a5	-0.1528383
8	0x39d6b35e	0.000409509
9	0x3ecfa178	0.40552878
10	0x3ec7d108	0.39026666
11	0xbc8724f5	-0.016497115
12	0x3e14e60c	0.14540881
13	0x3dbf9684	0.093548805
14	0xbd17c04f	-0.037048634
15	0x3daf9d75	0.085749544
16	0x3ce4d2e8	0.0279326
17	0xbe0f2129	-0.13977493
18	0x3d070a35	0.03296872
19	0xbd511cbc	-0.051052794
20	0x3d8f1ed9	0.069883056
21	0x3e139731	0.14413144
22	0xbe14bb7c	-0.14524645
23	0xbde40721	-0.11134172
24	0x3ddb56ce	0.10709916
25	0xbe3d111e	-0.18463561
26	0x3d4ea743	0.050452482
27	0x3dfa4e40	0.12221956
28	0x3d9962d7	0.07489555
29	0xbd536aad	-0.051615406
30	0x3c9de504	0.019274242
31	0xbde7d253	-0.11319413
32	0x3d6704f7	0.05640122
33	0x3e10017f	0.1406307
34	0x3d784d16	0.06062039
35	0x3dcf8692	0.10133089
36	0x3b40b608	0.0029405374
37	0x3e80a7ef	0.25128123
38	0xbdbbe25f	-0.09174036
39	0xbd27c23a	-0.040956713
40	0x3e7cb3f5	0.24678023
41	0x3e536046	0.20642194
42	0x3aa32ee2	0.0012449885
43	0x3eb831eb	0.35975584
44	0x3e878861	0.26471236
45	0xbea3c2b8	-0.31984496
46	0x3e169caa	0.147082
47	0x3dcc2858	0.099686325
48	0x3ce71342	0.028207425
49	0xbeaa20b9	-0.3322809
50	0xbe687422	-0.22700551
51	0x3e929b8c	0.28634298
52	0xbeb0773b	-0.34465966
53	0x3ebcbdfe	0.36863703
54	0xbe86e250	-0.26344538
55	0xbe3f96c2	-0.18709853
56	0xbe14fb12	-0.145489
57	0x3df19f8c	0.11798009
58	0xbe0899c0	-0.13339901
59	0xbcb9f460	-0.022699535
60	0x3e39e784	0.18154722
61	0xbdd687ad	-0.10475097
62	0xbe696b4f	-0.22794841
63	0x3d7fbc3e	0.06243538
64	0xba305cfb	-0.00067277224
65	0xbe1b9ac0	-0.15195751
66	0x3e5a7324	0.21332985
67	0xbde6d400	-0.112709045
68	0xbdbe05d3	-0.09278455
69	0x3d4e767d	0.050405968
70	0xbe2ebb87	-0.17063724
71	0x3db3826e	0.08765112
72	0xbc1b2969	-0.009470322
73	0x3d7e88ea	0.06214229
74	0x3cb72563	0.022356695
75	0x3cdb45a6	0.02676661
76	0x3c2b99f5	0.010473718
77	0x3c778202	0.01510668
78	0xb9407079	-0.00018352446
79	0x3da7fcfd	0.082025506
80	0x3ca722ad	0.020402277
81	0x3e29f010	0.16595483
82	0x3cf7be80	0.030242205
83	0x3dff8ee9	0.1247843
84	0xbf1c06b5	-0.60947734
85	0xbe824b9a	-0.25448304
86	0x3c356a08	0.011072643
87	0xbd36e8cf	-0.044655617
88	0x3d9eebf8	0.07759851
89	0x3dc734bd	0.09726856
90	0x3e9f19ae	0.3107428
91	0x3ef4277b	0.4768637
92	0x3d3bbd19	0.045834634
93	0x3e15208a	0.14563194
94	0xbe8b398e	-0.27192348
95	0xbe8bb6dd	-0.2728795
96	0xbe0e5231	-0.13898541
97	0xbe67b828	-0.22628844
98	0x3e97cbdf	0.2964773
99	0xbec6a56f	-0.3879809
100	0xbc9494e7	-0.018137408
101	0xbccdfd05	-0.025145063
102	0xbd3d283f	-0.04618096
103	0xbd84ea59	-0.06490011
104	0xbd2643b2	-0.040591903
105	0xbcec79fe	-0.028866764
106	0x3e70cf36	0.23516545
107	0xbe36187a	-0.17782775
108	0x3de0c74f	0.10975515
109	0x3d6560fc	0.056000695
110	0x3e6f047c	0.23341554
111	0x3e0b3766	0.13595352
112	0x3e31c1a4	0.17359024
113	0x3d0f2ed4	0.03495677
114	0x3d7f7e44	0.062376276
115	0xbd851489	-0.064980574
116	0x3de04488	0.10950571
117	0x3dcd3d15	0.10021416
118	0xbdf2019e	-0.11816715
119	0xbda4846e	-0.080330715
120	0x3f1d43db	0.61431664
121	0xbe77ea08	-0.2421037
122	0x3de6add1	0.112636216
123	0xbec58aa2	-0.3858233
124	0xbe97fc9d	-0.29684916
125	0xbc0c7fde	-0.008575408
126	0x3e3819f6	0.17978653
127	0x3d394567	0.045232203
128	0x3dfbb711	0.122907765
129	0xbf0db0f4	-0.55348134
130	0x3edbd272	0.42933995
131	0x3e4ae56f	0.19814084
132	0x3e07a295	0.13245614
133	0x3eaf1cd1	0.34201673
134	0xbe12bc6d	-0.14329691
135	0xbd268519	-0.040654276
136	0x3ddca514	0.10773674
137	0xbe8031fa	-0.2503813
138	0xbdef63f6	-0.11688988
139	0x3e36beee	0.17846271
140	0xbd8c8d50	-0.06862891
141	0xbc06026e	-0.00817929
142	0xbde3d603	-0.11124804
143	0xbdfa1b15	-0.12212197
144	0xbde56f5b	-0.1120288
145	0xbe8a5d52	-0.27024323
146	0x3c9596ae	0.018260326
147	0x3d45b2fe	0.048266403
148	0x3d90f069	0.070771046
149	0xbd89f300	-0.06735802
150	0x3e4e6249	0.2015468
151	0xbca4797a	-0.020077456
152	0x3e00ba46	0.12571058
153	0x3cc3a607	0.023882879
154	0xbe207e2c	-0.15673131
155	0xbe50d414	-0.20393401
156	0x3d00bf79	0.031432603
157	0xbe36b4ff	-0.17842482
158	0xbcef3b6e	-0.029203143
159	0xbd3e6138	-0.046479434
160	0x3d0506c9	0.032477174
161	0x3eeefac4	0.46675694
162	0xbd4d5341	-0.050128225
163	0x3eaa0076	0.33203477
164	0x3d063e9c	0.032774553
165	0xbe0a1503	-0.13484578
166	0x3e1b75e4	0.1518169
167	0xbd3d3efd	-0.04620265
168	0x3d74bbb6	0.059749328
169	0x3e9af9c6	0.30268687
170	0xbe92e5b1	-0.28690866
171	0x3dad7631	0.08469809
172	0x3d8bfdf5	0.06835548
173	0x3e4c009a	0.19922104
174	0x3e496051	0.19665648
175	0xbe316a32	-0.17325667
176	0xbc860d73	-0.016363835
177	0xbdcc3243	-0.09970524
178	0x3ec6e713	0.3884817
179	0xbec793a3	-0.38979825
180	0x3c7b7849	0.015348502
181	0x3dc21332	0.094763175
182	0xbdba25ca	-0.09089239
183	0x3d1029c4	0.03519608
184	0x3da0e070	0.07855308
185	0x3e10fcc3	0.14158921
186	0x3ce998ca	0.028515238
187	0xbe8e413b	-0.27784142
188	0x3c3bdc8c	0.011466157
189	0xbe120f2d	-0.14263602
190	0x3d5dbdfa	0.054136254
191	0x3d4e2488	0.050327808
192	0x3d6c4149	0.05767945
193	0x3c1e2624	0.009652648
194	0xbe14035c	-0.14454406
195	0xbdc0a4be	-0.09406422
196	0x3e038550	0.12843823
197	0xbdea6ec7	-0.1144691
198	0xbe5ed019	-0.2175907
199	0xbde1956e	-0.110148296
200	0x3d8cb9b9	0.06871361
201	0xbea3276e	-0.3186602
202	0x3da19842	0.07890369
203	0x3ea5607e	0.3230018
204	0x3db9a54f	0.09064733
205	0x3e40ef74	0.18841344
206	0x3e44672f	0.19179986
207	0xbe117565	-0.14204939
208	0xbd25bbce	-0.040462308
209	0x3d6f9dcd	0.0585001
210	0x3e6dfaf5	0.23240264
211	0xbe08688b	-0.1332113
212	0xbe936189	-0.2878535
213	0x3d53c3dc	0.051700458
214	0xbde11f76	-0.10992329
215	0xbe9f5f47	-0.31127378
216	0xbe101386	-0.14069948
217	0x3e1dafa0	0.15399027
218	0x3e514dc9	0.20439829
219	0xbe847190	-0.2586789
220	0xbd5a5bf5	-0.053310353
221	0x3e88188e	0.26581234
222	0xbe1545bc	-0.14577383
223	0x3d76281e	0.060096852
224	0x3d944438	0.07239574
225	0xbe1105d8	-0.14162385
226	0x3d3da01a	0.046295263
227	0x3e17fc7d	0.1484241
228	0x3d1de1cd	0.03854542
229	0x3e23a0a4	0.15979248
230	0xbc071c85	-0.008246546
231	0x3e8a7ba2	0.2704745
232	0x3dfcb003	0.12338259
233	0x3d942a3d	0.07234619
234	0x3deafee6	0.11474399
235	0xbdb8e70b	-0.09028443
236	0xbd004bf5	-0.03132244
237	0x3cf08ba1	0.029363455
238	0x3d9dff57	0.07714718
239	0xbd0987ed	-0.033576895
240	0xbcd9ff7f	-0.026611088
241	0xbe8a1b33	-0.26973876
242	0x3cee32d6	0.029076975
243	0x3e952781	0.29131702
244	0xbd85ffea	-0.06542952
245	0x3e328851	0.17434813
246	0x3ddd36bf	0.108014576
247	0x3dbe5099	0.092927165
248	0x3d42673d	0.047461737
249	0x3cf53d3c	0.029936425
250	0xbdda06d5	-0.10645834
251	0x3ca57a76	0.020199995
252	0x3d5e0537	0.054204192
253	0xbd83a2e8	-0.06427556
254	0x3e9a59ce	0.3014664
255	0xbe209e4f	-0.1568539

mlp.0.bias f4 [512]
0	0xbe0dc885	-0.13846023
1	0xbc7a6a53	-0.015284139
2	0xbe7b7a85	-0.24558456
3	0xbe45bc1c	-0.1931004
4	0x3e65787d	0.22409244
5	0xbe7e72d3	-0.2484849
6	0xbc33c8c1	-0.010973156
7	0xbe588e7c	-0.21148103
8	0xbf0aa8ab	-0.54163617
9	0xbddbe45b	-0.10736915
10	0xbf1cbb72	-0.6122352
11	0xbedc2d59	-0.43003348
12	0xbe2d6e39	-0.16936578
13	0xbebe144c	-0.3712486
14	0xbf09d182	-0.5383531
15	0xbf27277a	-0.6529461
16	0xbf1d7180	-0.6150131
17	0xbe975e46	-0.29564112
18	0x3b566454	0.0032713609
19	0xbe003394	-0.12519675
20	0x3d4fb126	0.05070605
21	0xbe2c9dd1	-0.16857077
22	0x3e2c5ba9	0.1683184
23	0xbebef8f0	-0.372993
24	0xbf0401f3	-0.51565474
25	0xbf279667	-0.6546387
26	0xbe813958	-0.25239062
27	0xbda48329	-0.08032829
28	0xbe7bd115	-0.24591477
29	0xbe907966	-0.2821762
30	0xbe7eec93	-0.24894933
31	0xbea73cc8	-0.3266356
32	0xbf2a4640	-0.66513443
33	0xbeed2c78	-0.4632299
34	0x3b8dd315	0.0043281415
35	0xbdda3a53	-0.10655656
36	0xbe64bcc6	-0.22337636
37	0xbf0d0cdc	-0.55097747
38	0xbf0633d0	-0.5242281
39	0xbd65c8a2	-0.05609954
40	0xbe246bca	-0.16056743
41	0xbf05a1d1	-0.5220004
42	0xbea27cde	-0.3173589
43	0x3d40defe	0.047087662
44	0xbe0d5636	-0.13802418
45	0x3b33a415	0.0027411033
46	0xbe0e0f74	-0.13873082
47	0x3db632c2	0.088964
48	0xbec07382	-0.37588125
49	0xbf6a90ec	-0.91627383
50	0xbf3813e3	-0.71905345
51	0xbddb7ef3	-0.10717573
52	0xbf223ea6	-0.63376844
53	0xbee64ee3	-0.4498206
54	0xbf4e0f73	-0.80492324
55	0xbda5ef4d	-0.081022836
56	0xbeee8068	-0.4658234
57	0x3dacdf7e	0.08441065
58	0xbee0c2b6	-0.43898553
59	0xbf4b5693	-0.79428977
60	0xbd8b1d42	-0.0679269
61	0xbf040b5d	-0.5157984
62	0xbec7c00f	-0.39013717
63	0xbd964ed1	-0.07339252
64	0xbec83c76	-0.39108628
65	0xbeb3007e	-0.34961313
66	0xbe0d9142	-0.13824943
67	0xbeaefc3c	-0.34176815
68	0xbed5f44a	-0.4178794
69	0xbe74fdd0	-0.23924947
70	0xbe210a57	-0.157266
71	0xbe0c1249	-0.1367885
72	0xbf277454	-0.6541188
73	0xbe9dcedf	-0.30821893
74	0xbee50967	-0.44733736
75	0xbe036a51	-0.12833525
76	0xbedd731b	-0.4325188
77	0x3e143cab	0.14476268
78	0xbe079f59	-0.1324438
79	0xbf24e0b1	-0.6440535
80	0xbeae2e9a	-0.3401993
81	0xbe8e0101	-0.2773514
82	0xbf1dc938	-0.6163516
83	0xbe454338	-0.19263923
84	0xbf370a96	-0.7150053
85	0xbf28eed1	-0.65989405
86	0xbed4249b	-0.41434178
87	0xbef354b3	-0.47525558
88	0xbeae9a2c	-0.34102
89	0xbed8a198	-0.42310786
90	0x3cbb14d9	0.02283709
91	0xbda0cd07	-0.07851606
92	0xbeb303f6	-0.3496396
93	0xbededaca	-0.43526298
94	0x3d14c653	0.03632195
95	0xbf5366a0	-0.8257847
96	0xbf1e865b	-0.6192376
97	0xbeb398eb	-0.35077605
98	0xbf0c87f5	-0.54894954
99	0xbe0d9553	-0.13826494
100	0xbeec6a45	-0.46174827
101	0xbf2e3ab0	-0.680583
102	0xbe46f058	-0.19427621
103	0xbed1b991	-0.40961888
104	0xbe7e1421	-0.24812366
105	0x3e0b5dbe	0.13609979
106	0xbee3b302	-0.4447251
107	0xbd66020a	-0.05615429
108	0xbde085bf	-0.1096301
109	0xbe6b1f62	-0.2296119
110	0xbefeb7ec	-0.49749696
111	0xbf57622d	-0.8413418
112	0xbd97c650	-0.07410872
113	0xbebf167c	-0.37321842
114	0xbe51e5df	-0.20497845
115	0xbe3818c4	-0.17978197
116	0xbdea1af0	-0.11430919
117	0x3e584456	0.21119818
118	0xbf5f026e	-0.8711308
119	0xbeb426c1	-0.35185817
120	0xbd364d71	-0.044507448
121	0xbf0cf955	-0.5506795
122	0xbe444823	-0.19168143
123	0xbeef5a82	-0.4674874
124	0xbed1bc99	-0.409642
125	0xbf483984	-0.7821276
126	0xbf27de0e	-0.65573204
127	0xbe411271	-0.18854691
128	0xbeaccefc	-0.33751667
129	0xbe178bd5	-0.14799435
130	0xbf2e3730	-0.6805296
131	0xbebd3b36	-0.36959237
132	0xbe94cc9e	-0.2906236
133	0xbf0604d2	-0.52351105
134	0xbde9477c	-0.11390588
135	0xbe92a97d	-0.28644934
136	0xbe4fba20	-0.20285845
137	0xbe06c448	-0.13160813
138	0xbe457d2d	-0.19286032
139	0xbe39544c	-0.18098563
140	0xbf0a8f40	-0.5412483
141	0xbf0c2c67	-0.5475525
142	0x3de58c71	0.11208428
143	0xbe9d7497	-0.30753013
144	0xbed13b22	-0.40865427
145	0xbf12a0a1	-0.5727635
146	0xbe0d966d	-0.13826914
147	0x3e038b96	0.12846217
148	0xbdf53264	-0.11972502
149	0xbe97122f	-0.2950606
150	0xbed4eaae	-0.41585296
151	0xbdebcbcb	-0.1151348
152	0xbeba151c	-0.3634423
153	0xbdbab0c0	-0.09115744
154	0xbed8698e	-0.42268032
155	0xbe0b35b7	-0.1359471
156	0xbf05a4a6	-0.5220436
157	0xbf05b81c	-0.52234054
158	0xbedeebcf	-0.43539283
159	0xbe2c5694	-0.16829902
160	0xbe3c8afd	-0.18412395
161	0xbf07049e	-0.5274142
162	0xbf04d5ef	-0.51888937
163	0xbf2390b6	-0.63892686
164	0xbf007213	-0.50174063
165	0x3af2cd62	0.0018524344
166	0xbed4bf06	-0.4155199
167	0x3e4cddee	0.20006534
168	0xbe2f5d93	-0.1712554
169	0xbe46a16e	-0.19397518
170	0xbe67776c	-0.2260415
171	0xbe59fe34	-0.21288377
172	0xbe149bd4	-0.14512569
173	0xbf091755	-0.53551227
174	0xbee721cb	-0.4514297
175	0xbe191e58	-0.14952981
176	0xbf03b525	-0.5144828
177	0xbe6bb8d9	-0.23019733
178	0x3d5d89ea	0.054086603
179	0xbe966414	-0.2937323
180	0xbecb2c52	-0.3968225
181	0xbe3eda30	-0.1863792
182	0xbe869b13	-0.26290187
183	0xbe28c313	-0.16480665
184	0xbde87bde	-0.11351751
185	0xbd5c45d9	-0.05377755
186	0xbf0c1591	-0.5472041
187	0xbe3885f1	-0.18019845
188	0xbdf15402	-0.11783601
189	0xbef8e9eb	-0.48615965
190	0x3daffd02	0.08593179
191	0xbebdf950	-0.37104273
192	0xbe33034f	-0.17481731
193	0xbd1efd6c	-0.0388159
194	0x3dc8b890	0.098008275
195	0xbe6af98d	-0.22946759
196	0xbf04dd66	-0.5190033
197	0xbe98e3a1	-0.29861167
198	0xbf080588	-0.5313344
199	0xbc761604	-0.015019897
200	0x3db8b74b	0.09019335
201	0xbe87ecb1	-0.2654777
202	0xbdae2856	-0.08503787
203	0xbf46ef43	-0.77708834
204	0xbef2b521	-0.47403815
205	0xbdb679d4	-0.089099556
206	0xbea0d963	-0.31415853
207	0xbdb117ec	-0.08647141
208	0x3d72c488	0.059269458
209	0xbe24b2f8	-0.16083896
210	0xbee4c22b	-0.44679388
211	0x3e249c64	0.16075283
212	0xbf26e603	-0.6519472
213	0xbf1c6e33	-0.6110565
214	0xbf167666	-0.5877441
215	0xbea30179	-0.3183706
216	0xbdc51615	-0.096233524
217	0xbf0ddf85	-0.5541919
218	0xbea45aa1	-0.32100394
219	0xbd752259	-0.05984721
220	0xbdd4484a	-0.103653505
221	0xbebcaa99	-0.36848906
222	0xbe607e9d	-0.21923299
223	0xbefd1a6f	-0.4943423
224	0xbe9f6361	-0.31130508
225	0xbe8bf413	-0.2733465
226	0xbe905074	-0.2818638
227	0xbef7ab1c	-0.48372734
228	0xbf29a0c5	-0.6626094
229	0xbdfc5bb1	-0.12322176
230	0xbe11c86a	-0.14236608
231	0xbde83c93	-0.113396786
232	0xbda35227	-0.07974654
233	0xbee7f68a	-0.45305282
234	0xbe3e5af7	-0.18589388
235	0xbef5ef54	-0.48034155
236	0x3d4a9215	0.04945572
237	0xbebcbcc7	-0.36862776
238	0xbf1c2851	-0.6099902
239	0xbf45789c	-0.7713716
240	0x3e334dea	0.1751019
241	0xbf04bc1e	-0.51849544
242	0x3e17e7b4	0.14834481
243	0xbf0998b6	-0.53748643
244	0xbdcf0ea3	-0.101102136
245	0xbe724d94	-0.23662406
246	0xbe003e25	-0.12523706
247	0xbe9683c7	-0.29397413
248	0xbf011c0f	-0.5043344
249	0xbe8e1fdb	-0.2775868
250	0xbe4ead39	-0.20183267
251	0xbdfbe5a1	-0.122996576
252	0xbe1bf8a0	-0.15231562
253	0xbee96528	-0.4558499
254	0xbe6f0836	-0.23342976
255	0xbf12c32c	-0.5732906

mlp.2.weight f4 [256, 512]
0	0xbe2b0918	-0.16702688
1	0xbe759c52	-0.23985413
2	0xbd31a54b	-0.043370526
3	0x3d812310	0.06305516
4	0xbcbe775d	-0.023250276
5	0xbdb4535d	-0.08804963
6	0x3d8787a7	0.066176705
7	0xbd8724c0	-0.065988064
8	0xbe6b812e	-0.22998497
9	0xbb9bf108	-0.004758958
10	0x3dbd4933	0.09242477
11	0x3e35bf6c	0.17748803
12	0xbe33a2c4	-0.17542559
13	0xbc431735	-0.011907388
14	0xbe57373d	-0.21017165
15	0xbd9a7248	-0.07541329
16	0xbddbcdcc	-0.10732612
17	0x3df5478b	0.11976536
18	0x3d92e816	0.07173173
19	0x3da9beec	0.082883686
20	0xbdc57308	-0.09641081
21	0xbde91e8f	-0.11382782
22	0xbe678699	-0.22609939
23	0xbe3e30f7	-0.18573366
24	0x3cf8f4eb	0.030390223
25	0x3e8d9b11	0.2765737
26	0x3b907d8d	0.004409498
27	0x3dbc9fdc	0.09210178
28	0xbd9e07d5	-0.077163376
29	0xbe907a8b	-0.28218493
30	0x3d6468ac	0.055763885
31	0xbccbf930	-0.024899095
32	0x3c8488df	0.016178546
33	0x3dc6a4a7	0.09699374
34	0x3e029c6f	0.12754987
35	0xbd7184a8	-0.0589644
36	0x3e07be48	0.1325618
37	0x3e18be7e	0.14916417
38	0x3d270c29	0.04078308
39	0x3e2e4c6b	0.17021339
40	0x3ca24fa8	0.019813374
41	0xbe284707	-0.16433345
42	0xbd99a419	-0.07502002
43	0xbe955ed5	-0.29173914
44	0xbe02dd93	-0.12779836
45	0xbdc6034b	-0.09668597
46	0x3cb9b6f4	0.022670247
47	0xbb935b24	-0.004496949
48	0xbe0d50be	-0.13800332
49	0x3e2933d5	0.16523679
50	0x3de15c4b	0.110039316
51	0xbe766e35	-0.24065478
52	0x3e0f718a	0.14008155
53	0x3deb8934	0.11500779
54	0xba3f7519	-0.00073035207
55	0x3d502fe3	0.05082692
56	0x3e6d77aa	0.2319018
57	0xbe36e413	-0.17860441
58	0x3e356665	0.17714842
59	0x3e1c41f2	0.15259531
60	0x3d2999bb	0.041406374
61	0x3d7e7079	0.06211898
62	0x3d9ec06f	0.077515475
63	0xbda70c7e	-0.081566796
64	0x3df59ec6	0.11993174
65	0xbccc576d	-0.024944032
66	0xbe5cae91	-0.21550967
67	0x3df8678b	0.12129124
68	0x3c1961c3	0.009361687
69	0xbe9ebd39	-0.3100374
70	0xbe9ea442	-0.30984694
71	0xbe010bf7	-0.1260222
72	0x3dfb1b3d	0.12261055
73	0xbe8f7597	-0.280194
74	0xbc3a25ab	-0.01136152
75	0x3cbcac7c	0.023031466
76	0xbda16e83	-0.078824066
77	0xbce1c6a4	-0.02756054
78	0x3cef2f66	0.029197406
79	0x3e1c930f	0.15290473
80	0xbe86b54e	-0.263102
81	0x3e08163c	0.13289732
82	0x3dc9c702	0.09852411
83	0x3dac58cf	0.084153764
84	0x3da90786	0.08253388
85	0xbd580701	-0.052741054
86	0x3dedc96e	0.11610685
87	0x3d815d79	0.063166566
88	0xbe388172	-0.1801813
89	0xbe37b26d	-0.17939158
90	0xbe40728d	-0.18793698
91	0xbe658648	-0.22414505
92	0xbddd295f	-0.107989065
93	0xbbe095dd	-0.0068538026
94	0xbeab4ebe	-0.33458513
95	0xbe56a85e	-0.20962664
96	0x3d90c2b6	0.07068388
97	0xbdb66bf0	-0.08907306
98	0x3e02d1c8	0.12775338
99	0x3b811b3e	0.003940015
100	0xbdd3a3b9	-0.10333962
101	0xbd153e13	-0.03643615
102	0x3d298eef	0.041396078
103	0xbd3775bf	-0.044790026
104	0x3e6cbc68	0.23118746
105	0xbe6b8a2c	-0.23001927
106	0xbe327921	-0.1742902
107	0x3c8e540b	0.01737406
108	0xbd27a529	-0.040928993
109	0xbdf9636f	-0.121771686
110	0xbe0ab1a6	-0.1354433
111	0xbd379229	-0.044817124
112	0xbe826d13	-0.25473842
113	0x3e48f7a4	0.19625717
114	0xbdcf5ff7	-0.10125726
115	0xbce91e63	-0.028456872
116	0xbc9d22f6	-0.01918171
117	0xbe3ec86b	-0.18631141
118	0x3d2b0c2a	0.041759647
119	0x3d6215b4	0.05519648
120	0xbd60929f	-0.05482733
121	0x3e0f1101	0.1397133
122	0x3d345a70	0.04403156
123	0xbdfb2ab6	-0.12264006
124	0x3d4e8988	0.05042413
125	0xbd5c2f0b	-0.0537558
126	0x3dae8d01	0.08522988
127	0xbea84f33	-0.32872924
128	0xbda48c71	-0.080345996
129	0x3d90d7fc	0.07072446
130	0xbd933fa8	-0.07189876
131	0xbd18e729	-0.037329827
132	0xbd35ed9c	-0.044416055
133	0x3e1538dc	0.14572471
134	0xbedec062	-0.4350615
135	0x3db74f46	0.08950667
136	0x3db68c5a	0.08913489
137	0x3d81ad58	0.06331891
138	0x3e4d80b6	0.2006863
139	0x3d8afc11	0.06786359
140	0x3dea0ad6	0.11427848
141	0x3e192c8d	0.14958401
142	0xbea4f73e	-0.3221988
143	0xbeabb9db	-0.33540234
144	0x3e0e38bf	0.13888834
145	0xbd94932e	-0.07254635
146	0xbdb46bf1	-0.08809651
147	0xbcb1f13a	-0.021721471
148	0xbcecfc7d	-0.02892899
149	0xbe15bff8	-0.14624012
150	0xbd029c2e	-0.031887226
151	0x3da99915	0.08281151
152	0x3a952d92	0.0011381379
153	0xbe0647a4	-0.13113266
154	0x3b179436	0.0023129112
155	0x3dc0a303	0.09406092
156	0xbc4a84a6	-0.012360727
157	0xbcece8ab	-0.028919538
158	0xbe27e395	-0.1639541
159	0x3daaa446	0.08332114
160	0x3d69d105	0.057084102
161	0x3cdbd952	0.026837025
162	0xbe51c0c4	-0.2048369
163	0x3e29fb65	0.16599806
164	0xbd030d6d	-0.031995226
165	0xbe993985	-0.29926696
166	0x3e068c76	0.13139519
167	0xbe1a853d	-0.15089889
168	0xbe52f54b	-0.20601384
169	0xbc762489	-0.015023359
170	0xbea02151	-0.31275418
171	0x3e1cc6fd	0.15310283
172	0xbdf41fac	-0.119201034
173	0x3e02302b	0.12713687
174	0xbd8b222a	-0.06793626
175	0xbe99f5fe	-0.3007049
176	0xbdb7e460	-0.08979106
177	0xbdaee187	-0.0853911
178	0xbe160134	-0.14648896
179	0xbe14d8b4	-0.1453579
180	0xbe4868df	-0.19571255
181	0xbc20c8e1	-0.009813518
182	0x3d0a8864	0.03382148
183	0xbd62532d	-0.055255104
184	0xbdeb45aa	-0.11487897
185	0xbe30fa07	-0.17282878
186	0xbddfdb24	-0.1093047
187	0x3d5f26cd	0.054480363
188	0x3d8f240c	0.06989297
189	0xbd90ec81	-0.070763595
190	0x3b9e0e50	0.0048234835
191	0xbd8e2627	-0.06940871
192	0xbe10f6e5	-0.14156683
193	0xbcd37773	-0.025813794
194	0xbdb41f0e	-0.08794986
195	0x3b13e999	0.0022569655
196	0xbd015390	-0.031573832
197	0xbd834d4a	-0.06411226
198	0x3e406307	0.18787776
199	0xbd18dd62	-0.037320502
200	0xbe3eacb8	-0.18620574
201	0xbd91a4f7	-0.07111543
202	0xbbfb239e	-0.007664158
203	0x3dca1aae	0.0986837
204	0x3ce8b32c	0.028405748
205	0xbe2500dc	-0.16113609
206	0xbd6e6b73	-0.05820794
207	0xbdb21911	-0.08696187
208	0x3d7fafa3	0.06242336
209	0xbda58a53	-0.08083024
210	0x3dedfb8c	0.116202444
211	0xbde53ac2	-0.11192848
212	0x3dd5bc85	0.10436348
213	0x3e2af032	0.1669319
214	0x3db2cff1	0.08731068
215	0x3c05a2f2	0.008156525
216	0xbe1ff6b9	-0.15621461
217	0xbd350ae4	-0.04419984
218	0xbe21ac25	-0.15788324
219	0xbe2f0ee6	-0.17095527
220	0x3cf7c11b	0.030243447
221	0x3ce3fb19	0.027829694
222	0xbdb56831	-0.088577636
223	0xbe4c50f8	-0.19952762
224	0xbdafa2cc	-0.08575973
225	0xbdd9fbc2	-0.10643722
226	0xbe4817ca	-0.19540325
227	0x3e15af3f	0.14617632
228	0x3e35f8af	0.17770647
229	0x3dc7c68a	0.09754665
230	0xbd80b676	-0.06284802
231	0xbc7b9ccf	-0.01535721
232	0xbc7eaab8	-0.015543632
233	0x3d031416	0.032001577
234	0xbd9a18fd	-0.075242974
235	0x3c765216	0.015034219
236	0xbd41de35	-0.047331054
237	0x3e1206f1	0.1426046
238	0xbe31ce3c	-0.17363828
239	0x3daaeb12	0.08345617
240	0xbd8aec05	-0.067832984
241	0x3e0f65e0	0.14003706
242	0xbdc51f76	-0.09625141
243	0x3de6d1fa	0.112705186
244	0xbdaa7b82	-0.083243385
245	0xbcceff18	-0.025268123
246	0xbe34af0d	-0.17644902
247	0x3cffd15c	0.03122776
248	0x3d551fce	0.052032284
249	0x3dd9955d	0.10624192
250	0x3d0d3700	0.03447628
251	0x3d1dadc3	0.03849579
252	0xbe664721	-0.22488071
253	0x3d9bd8ad	0.07609687
254	0xbe76ee0c	-0.24114245
255	0xbbb823c8	-0.0056195

mlp.2.bias f4 [256]
0	0xbeb59f71	-0.35473207
1	0xbe8d393c	-0.2758273
2	0xbe84a943	-0.25910386
3	0xbd092354	-0.033480957
4	0xbe54c513	-0.20778303
5	0xbe6859f6	-0.22690567
6	0xbb74dea0	-0.003736414
7	0xbea362b9	-0.31911257
8	0xbe7e9673	-0.2486208
9	0xbd84b3f6	-0.06479637
10	0xbe41e619	-0.18935432
11	0xbe7ffba3	-0.24998336
12	0x3c601289	0.013676294
13	0xbecc3261	-0.39882186
14	0xbd904a20	-0.07045388
15	0xbd26b0a8	-0.040695816
16	0xbd9b3294	-0.075780064
17	0xbe64d709	-0.22347654
18	0xbecf7d50	-0.40525293
19	0xbeae554e	-0.34049457
20	0xbe1f2f30	-0.15545344
21	0xbd7a5b8a	-0.061122455
22	0xbe26294a	-0.16226688
23	0xbd38e370	-0.045138776
24	0xbdefefa0	-0.11715627
25	0xbdacbe71	-0.08434761
26	0xbe8f245c	-0.27957428
27	0xbef58a2d	-0.47956982
28	0xbe1b71d1	-0.15180136
29	0xbcb02a87	-0.021504654
30	0xbecfda26	-0.40596122
31	0xbe0d2cc0	-0.13786602
32	0xbe9a58ec	-0.30145967
33	0xbecc9466	-0.3995697
34	0xbe34c874	-0.17654592
35	0xbe3c4928	-0.18387282
36	0xbebda8da	-0.37042886
37	0xbe5feece	-0.2186844
38	0xbea7ffbf	-0.32812306
39	0x3db87f69	0.090086766
40	0xbec4740b	-0.38369784
41	0xbe69d401	-0.2283478
42	0xbd7c4f19	-0.06159887
43	0xbd66de90	-0.056364596
44	0xbe93c57a	-0.288616
45	0xbe8925d3	-0.2678667
46	0xbde178f7	-0.110094
47	0xbe4a5390	-0.19758439
48	0xbe949f92	-0.29027992
49	0xbd77acdc	-0.060467586
50	0xbe0cdc81	-0.1375599
51	0xbe0a162d	-0.13485022
52	0xbe89caf2	-0.26912647
53	0xbe4572d4	-0.19282085
54	0xbea83145	-0.3285009
55	0x3c0d6614	0.008630294
56	0xbe908d42	-0.2823277
57	0xbd7c25e2	-0.061559565
58	0xbe6d5e1a	-0.23180428
59	0xbe0e5484	-0.13899428
60	0xbdedf543	-0.116190456
61	0xbe0a6ffe	-0.13519284
62	0xbeeb38cb	-0.45941767
63	0xbdf024fd	-0.11725805
64	0xbeaa8c62	-0.3331023
65	0xbee69f40	-0.45043373
66	0xbe435b57	-0.19077812
67	0xbe980819	-0.29693678
68	0xbe875d15	-0.26438203
69	0xbe9cb248	-0.30604768
70	0xbe137dc7	-0.14403449
71	0xbe1aeee7	-0.15130197
72	0xbeaa2f7e	-0.3323936
73	0xbe5dc184	-0.21655852
74	0xbe2841aa	-0.16431299
75	0xbdda88a1	-0.10670591
76	0xbeb8064a	-0.35942298
77	0xbe4b2594	-0.19838554
78	0xbe8a7df1	-0.2704921
79	0xbf2bf827	-0.67175525
80	0xbed42682	-0.4143563
81	0xbe76ad70	-0.24089599
82	0xbc9351d3	-0.017983353
83	0xbda215ea	-0.07914336
84	0xbe587001	-0.21136476
85	0xbe5255c5	-0.20540531
86	0xbe20b502	-0.15694049
87	0xbe7f216c	-0.24915093
88	0xbe7b9ad1	-0.24570777
89	0xbd71020a	-0.058839835
90	0xbe9f28e3	-0.31085882
91	0xbe3184fc	-0.17335886
92	0xbd716eec	-0.058943674
93	0xbccca2a4	-0.024979897
94	0xbea5ca24	-0.32380784
95	0xbe52cdb9	-0.2058629
96	0xbe5ad14d	-0.21368904
97	0xbece8f27	-0.40343592
98	0xbe9be103	-0.30445108
99	0xbea3cb86	-0.31991214
100	0xbdaaee78	-0.083462656
101	0xbe91e356	-0.28493756
102	0xbde004bd	-0.10938404
103	0xbd893fa9	-0.06701595
104	0xbe8168d1	-0.2527528
105	0xbe177717	-0.14791523
106	0xbe6c4810	-0.23074365
107	0xbecb896b	-0.3975328
108	0xbe33647c	-0.175188
109	0xbd1461f8	-0.036226243
110	0xbe7c1382	-0.24616817
111	0xbe60221c	-0.21888012
112	0xbe8eda6e	-0.27901024
113	0xbe18e2ed	-0.14930315
114	0xbe9e4187	-0.30909368
115	0xbebeeddf	-0.37290856
116	0xbe178789	-0.14797796
117	0xbdda5ae6	-0.10661869
118	0xbe99f2bc	-0.30068004
119	0xbe4cf1d2	-0.20014122
120	0xbeb2ebb4	-0.34945452
121	0xbed6542d	-0.41861096
122	0xbe7958ef	-0.24350332
123	0x3d9e5d08	0.07732588
124	0xbebd59fb	-0.36982712
125	0xbe94256f	-0.2893481
126	0xbe4c4b7d	-0.19950671
127	0xbe089956	-0.13339743
128	0xbe65756e	-0.22408077
129	0xbcf77405	-0.03020669
130	0xbe2ed4cd	-0.17073365
131	0xbd05e52b	-0.032689255
132	0xbd9fbbab	-0.07799467
133	0xbe995bcc	-0.29952848
134	0xbebe10b0	-0.37122107
135	0xbde43a8e	-0.11143981
136	0xbea6002d	-0.3242201
137	0xbee0bea5	-0.4389545
138	0xbdf91b42	-0.12163402
139	0xbebfb9b8	-0.3744638
140	0xbe962f88	-0.29333138
141	0xbe80656f	-0.25077388
142	0xbe2b2cd4	-0.1671632
143	0xbe740cf4	-0.23833066
144	0xbe8fe6c2	-0.28105742
145	0xbed101d5	-0.4082171
146	0xbeb7a7b9	-0.3587015
147	0xbded3ba6	-0.11583643
148	0xbd96c3ca	-0.073615626
149	0xbe3485d9	-0.17629184
150	0x3cb24dc6	0.0217656
151	0xbe836a61	-0.25667098
152	0xbdfc8cff	-0.1233158
153	0xbed3f809	-0.41400173
154	0xbb201282	-0.0024425094
155	0xbe9b3407	-0.3031313
156	0x3cf2e5c2	0.029650573
157	0xbdf0c5fc	-0.117565125
158	0xbd8b7b7a	-0.06810661
159	0xbea57233	-0.3231369
160	0xbe93d61b	-0.28874287
161	0xbd84f551	-0.06492103
162	0xbe3617a6	-0.17782459
163	0xbea47036	-0.3211686
164	0x3e0e3df2	0.13890818
165	0x3e623685	0.2209111
166	0xbecfbda8	-0.40574384
167	0xbeaa4802	-0.33258063
168	0xbe60d702	-0.21957019
169	0x3d5a99e2	0.05336941
170	0xbe5deb03	-0.21671681
171	0xbdf38af8	-0.118917406
172	0xbe8f08a3	-0.27936277
173	0x3d9ef93e	0.07762383
174	0xbea3341e	-0.318757
175	0xbeffc32b	-0.4995359
176	0xbe6e8fdf	-0.2329707
177	0xbe572fed	-0.21014376
178	0xbed5b251	-0.41737607
179	0xbec441d0	-0.3833146
180	0xbea95a00	-0.33076477
181	0xbd2cbc98	-0.042172045
182	0xbded39fd	-0.11583326
183	0xbdbfb59c	-0.09360811
184	0xbea66412	-0.32498223
185	0xbda5253b	-0.08063742
186	0xbeb3dfa8	-0.35131574
187	0xbeb519ec	-0.3537134
188	0xbe9c66e3	-0.30547246
189	0xbdeabbeb	-0.11461624
190	0xbe959ab8	-0.29219604
191	0xbe359d29	-0.17735733
192	0xbce2ccff	-0.02768564
193	0xbe8a981b	-0.27069172
194	0xbdf40cfc	-0.11916539
195	0xbe864f7f	-0.26232526
196	0xbe8a86b9	-0.2705591
197	0xbe5db121	-0.216496
198	0xbedd94e9	-0.43277672
199	0xbe7a2967	-0.24429856
200	0xbe1b1149	-0.15143313
201	0xbe00a5f2	-0.12563303
202	0xbe40632a	-0.18787828
203	0xbe9fe831	-0.31231835
204	0xbe3ac345	-0.18238552
205	0xbd1946ca	-0.037421025
206	0xbe9ad974	-0.3024403
207	0xbe86bc6b	-0.26315627
208	0xbebed868	-0.3727448
209	0xbeb6a1cb	-0.35670313
210	0xbdb8bb77	-0.09020131
211	0xbea7a058	-0.3273952
212	0xbea14e43	-0.3150502
213	0xbe66cfb9	-0.22540177
214	0x3c8781d8	0.016541407
215	0xbd22c734	-0.039740756
216	0xbe80c7cc	-0.25152433
217	0x3ce40ed8	0.02783911
218	0xbe33481d	-0.17507978
219	0xbe718c69	-0.23588718
220	0xbec3151c	-0.38102043
221	0xbe8174f0	-0.2528453
222	0xbe71375c	-0.23556274
223	0x3c2a272b	0.010385315
224	0xbe2c7d9b	-0.1684479
225	0xbdd2d6e3	-0.10294893
226	0xbe9feee4	-0.31236947
227	0xbef002cc	-0.46877134
228	0xbe91fabc	-0.28511608
229	0xbe4ae2e3	-0.19813113
230	0xbe284af1	-0.16434838
231	0xbe4d1613	-0.20027952
232	0xbe38b53f	-0.1803789
233	0xbe7c32c4	-0.2462874
234	0x3e0961bc	0.13416189
235	0xbcb16359	-0.021653818
236	0xbe8446db	-0.25835308
237	0xbea40274	-0.32033122
238	0xbd4420b9	-0.04788277
239	0xbecf6928	-0.40509915
240	0xbebb48b1	-0.36578897
241	0xbebf3f7c	-0.37353122
242	0xbe419343	-0.18903832
243	0xbda54bd2	-0.08071102
244	0xbe845619	-0.25846937
245	0xbea0f2d9	-0.31435278
246	0xbe5cb1e1	-0.2155223
247	0xbec7cb4f	-0.390223
248	0xbe70952a	-0.23494402
249	0xbe91acbb	-0.28452095
250	0xbe89fa89	-0.26948956
251	0xbe9cb3c1	-0.3060589
252	0xbe86a9f2	-0.26301533
253	0xbe27dd1a	-0.16392937
254	0xbe42da70	-0.1902864
255	0xbefc167f	-0.49235913

mlp.4.weight f4 [128, 256]
0	0xbbe7f881	-0.0070791845
1	0xbcbd3097	-0.023094459
2	0x3d63da1e	0.055627935
3	0x3d8d4022	0.06896998
4	0x3e23c22d	0.15992041
5	0xbe467e4b	-0.19384114
6	0xbe8550a3	-0.26038083
7	0xbde8616a	-0.11346705
8	0x3e850da1	0.2598696
9	0xbd536bbd	-0.05161642
10	0x3cccdf6d	0.025008881
11	0x3c8a1389	0.016855018
12	0xbce9398e	-0.028469827
13	0x3c9580f1	0.01824996
14	0x3d1df1bf	0.038560625
15	0x3cdd3baf	0.027005998
16	0xbe3602e8	-0.17774546
17	0xbdf35d96	-0.118830845
18	0xbd93d0b9	-0.07217545
19	0x3dad19eb	0.08452209
20	0x3dd2ddf2	0.10296239
21	0xbe1321ff	-0.14368437
22	0x3d332e8b	0.04374556
23	0x3e60dac9	0.2195846
24	0x3cfd78dd	0.030941421
25	0x3de4f403	0.11179354
26	0xbdb6a3c6	-0.08917956
27	0x3d4224e2	0.047398455
28	0xbdc6ec78	-0.097130716
29	0xbf023571	-0.50862795
30	0x3dc783bc	0.09741923
31	0x3d0df6cb	0.03465919
32	0xbe280b1c	-0.16410488
33	0x3e7c4ed8	0.24639452
34	0x3d1f08d6	0.038826786
35	0x3c266872	0.010156738
36	0x3d87fa86	0.066395804
37	0x3d06a9e5	0.032876868
38	0xbd42a328	-0.04751888
39	0xbd7d559b	-0.061849218
40	0x3d19c9f0	0.0375461
41	0x3d745ff0	0.059661806
42	0xbdc53078	-0.09628385
43	0x3d86fde3	0.06591394
44	0x3d5e1053	0.054214787
45	0xbe15041e	-0.14552352
46	0xbe4d1b8b	-0.20030038
47	0x3d802de5	0.06258754
48	0x3d13c116	0.036072813
49	0xbea6c371	-0.32570985
50	0x3cc8f6b0	0.024531692
51	0x3db31866	0.08744888
52	0x3e052df4	0.13005811
53	0xbe242352	-0.16029099
54	0x3dc4d77b	0.09611412
55	0xbe1c8250	-0.15284085
56	0xbd888c1e	-0.0666735
57	0x3dec842e	0.11548649
58	0x3d890480	0.066903114
59	0x3d74b6d3	0.059744667
60	0x3d9d0355	0.07666651
61	0x3db9dfa9	0.09075863
62	0x3e50fbe2	0.20408586
63	0xbe24b87b	-0.16085999
64	0x3d0450d0	0.03230363
65	0x3d50b7fe	0.05095672
66	0x3ce70ae6	0.028203439
67	0x3af69810	0.0018813629
68	0x3db098ac	0.0862287
69	0x3d56620f	0.05233961
70	0x3cb3c93e	0.021946546
71	0x3d516221	0.051118974
72	0x3e722ef9	0.23650731
73	0xbd2bac8d	-0.041912604
74	0x3dc14d36	0.09438555
75	0xbcc0c907	-0.023533357
76	0x3e600819	0.21878089
77	0xbd242c2d	-0.04008119
78	0xbdb2348a	-0.08701427
79	0xbbd0258d	-0.0063521327
80	0xbd63c791	-0.055610243
81	0x3de3cb52	0.11122765
82	0xbe06d7d7	-0.13168274
83	0x3c0d51a0	0.008625418
84	0x3dad78fa	0.0847034
85	0x3dcea32c	0.10089716
86	0xbcd5dbc6	-0.026105773
87	0xbaa1378c	-0.001229988
88	0xbe688dc1	-0.22710325
89	0xbe026be6	-0.12736472
90	0xbbfe597e	-0.007762133
91	0xbe3c77ab	-0.18405025
92	0xbccf025a	-0.025269676
93	0xbd87c19d	-0.06628726
94	0x3e960cf4	0.29306757
95	0x3d113875	0.035454232
96	0xbe0b99f6	-0.1363295
97	0x3e1cf011	0.15325953
98	0x3c9a9d54	0.018873848
99	0x3bd7aa63	0.006581591
100	0x3d24aeb8	0.040205687
101	0x3d848dd5	0.06472365
102	0xbd53b890	-0.051689684
103	0xbd841940	-0.064501286
104	0xbdaecfa0	-0.08535695
105	0xbe1a8740	-0.15090656
106	0xbc61a20a	-0.013771543
107	0x3d0fdde3	0.035123717
108	0xbd59dfd8	-0.05319199
109	0x3b79c09e	0.0038109194
110	0xbcadb3de	-0.021203931
111	0x3df98f72	0.12185563
112	0xbd0cf5a8	-0.034413964
113	0x3e988f74	0.29796946
114	0x3d4cad44	0.049969926
115	0x3dabc0e7	0.083864026
116	0x3d3c45c2	0.045964964
117	0x3d5338d7	0.05156788
118	0xbdc86cfd	-0.09786413
119	0x3e894fef	0.26818797
120	0x3d565f29	0.052336846
121	0x3e1bbc43	0.15208535
122	0x3e2885de	0.16457316
123	0x3d409e98	0.047026247
124	0x3b214fc9	0.0024614206
125	0x3de1fbe0	0.110343695
126	0xbd7d9819	-0.06191263
127	0xbe730bc1	-0.23734953
128	0xbdde5242	-0.10855533
129	0x3dee7e03	0.116451286
130	0xbd4f9446	-0.050678514
131	0xbe129206	-0.14313516
132	0x3ca4d7f4	0.020122506
133	0xbe06df8f	-0.13171218
134	0x3e6d5b85	0.23179443
135	0x3dcf2a69	0.10115511
136	0x3ca9dd1c	0.020735316
137	0x3d943e1c	0.07238409
138	0xbdb1e5b2	-0.08686389
139	0x3c827703	0.01592589
140	0xbd62d5a7	-0.055379536
141	0x3df455ae	0.119304046
142	0x3b8d37c2	0.0043096254
143	0x3d40c9d4	0.04706748
144	0xbd9262e8	-0.07147771
145	0xbb3ade48	-0.0028513838
146	0x3e91975c	0.2843579
147	0x3ca7c7e4	0.020481057
148	0x3c836ce5	0.016043136
149	0x3bdf5f20	0.0068167597
150	0x3cf03287	0.029320968
151	0xbe8fb2d1	-0.28066114
152	0xbe801eb0	-0.25023413
153	0xbcfa6b36	-0.0305687
154	0x3da41e04	0.080135375
155	0xbd521b75	-0.051295716
156	0x3de92562	0.11384083
157	0xbd505e73	-0.050871324
158	0xbdaa91fa	-0.08328624
159	0x3c1ed58b	0.009694467
160	0xbc031e27	-0.008002794
161	0xbd45c564	-0.04828395
162	0xbd83b7eb	-0.06431564
163	0x3d8b7f52	0.06811394
164	0xbd6f4238	-0.05841276
165	0x3db04d10	0.086084485
166	0xbc3328a8	-0.010934986
167	0xbd858bbd	-0.065207936
168	0xbdb17c30	-0.08666265
169	0xbbf717f3	-0.0075406968
170	0xbde9ac38	-0.11409801
171	0x3db67dbb	0.089107
172	0x3dac7abf	0.084218495
173	0xbe6a1491	-0.22859408
174	0x3e2f7fd0	0.171386
175	0xbaededfd	-0.0018152591
176	0xbd026ed5	-0.03184398
177	0x3dd67e85	0.104733504
178	0xbea22178	-0.3166616
179	0x3cd5f248	0.026116505
180	0x3cb9c3ce	0.022676375
181	0xbdfcabc0	-0.12337446
182	0xbdc5973b	-0.096479855
183	0xbe34559e	-0.17610785
184	0xbdc98816	-0.098404095
185	0x3dc55af1	0.09636486
186	0xbe86118c	-0.26185262
187	0x3da30759	0.07960386
188	0x3dcc7883	0.09983923
189	0x3d9883f2	0.074470416
190	0xbd80ae58	-0.062832534
191	0x3d5d70ac	0.05406253
192	0xbd38d41a	-0.04512415
193	0xbd869414	-0.065712124
194	0xbe3660ef	-0.17810415
195	0xbd6e0989	-0.058114562
196	0xbdb4fa4f	-0.08836805
197	0x3e25ac3e	0.16178986
198	0x3e166bf6	0.14689621
199	0x3db276fb	0.087141
200	0xbe6324a4	-0.22181946
201	0xbe0c681b	-0.13711588
202	0x3d56e63a	0.052465655
203	0x3df4cff4	0.119537264
204	0x3dd79bf5	0.10527793
205	0xbe080e16	-0.13286623
206	0x3e6e7f77	0.23290811
207	0xbe3474ab	-0.1762263
208	0x3dd5bb38	0.104361
209	0x3dd17b53	0.102286
210	0x3ba7dc7a	0.0051227184
211	0xbe451398	-0.19245756
212	0xbdf1fdf5	-0.118160166
213	0x3d1867ad	0.037208248
214	0xbd231b7e	-0.03982114
215	0x3d6074b4	0.054798797
216	0x3dba0b69	0.090842076
217	0x3c30ad2a	0.010783473
218	0x3dcaf0e4	0.099092275
219	0x3e060310	0.13087106
220	0x3dc9a893	0.09846606
221	0xbe9327a9	-0.28741196
222	0x3e5f80ab	0.21826427
223	0x3d8b4bbd	0.06801555
224	0x3dab447f	0.08362674
225	0xbd38316f	-0.04496902
226	0x3dc05299	0.09390754
227	0x3c859748	0.016307488
228	0x3d29ec72	0.041485257
229	0xbd93fd7a	-0.07226081
230	0xbe1dd671	-0.15413834
231	0xbe839752	-0.25701386
232	0x3e6d95f3	0.23201732
233	0x3e84b60b	0.25920138
234	0xbdb4f770	-0.088362575
235	0xbc78d15a	-0.015186632
236	0xbdde59eb	-0.10856994
237	0x3d61860a	0.05505947
238	0xbd611d27	-0.054959442
239	0x3c49cbc4	0.012316648
240	0xbd4472bf	-0.047960993
241	0x3e7664ea	0.24061933
242	0xbd1f643e	-0.038913958
243	0x3bb870ff	0.0056287046
244	0xbc806fa2	-0.01567823
245	0xbd064274	-0.03277822
246	0xbe06615b	-0.13123076
247	0x3df5f8ff	0.12010383
248	0xbea9492a	-0.33063632
249	0x3d39dba9	0.0453755
250	0x3d45dc1e	0.048305623
251	0x3d8b343e	0.06797074
252	0xbc350ced	-0.011050445
253	0xbdcf1a56	-0.10112445
254	0xbd8db7c8	-0.06919819
255	0x3c906edc	0.017630987

mlp.4.bias f4 [128]
0	0xbe4bd8e4	-0.19906956
1	0x3c2dc994	0.010607142
2	0xbe33517f	-0.17511557
3	0x3bc6fd9e	0.006072714
4	0x3dcd35ae	0.10020004
5	0xbd84e28c	-0.06488523
6	0xbbfd5c52	-0.0077319527
7	0xbd839ad2	-0.06426014
8	0xbeb1e53f	-0.34745213
9	0xbebc84db	-0.3682011
10	0xbe51d205	-0.20490272
11	0xbd087716	-0.033316694
12	0xbe1dd508	-0.15413296
13	0x3dc3356b	0.09531673
14	0xbd897052	-0.067108765
15	0xbd9a6831	-0.07539404
16	0xbe64b8a3	-0.22336058
17	0x3b72febc	0.0037078103
18	0xbef4d0aa	-0.47815448
19	0xbd85b77b	-0.06529137
20	0xbc9096c5	-0.017650018
21	0xbca27f75	-0.019836167
22	0xbe140e7a	-0.14458647
23	0xbe7b5421	-0.24543811
24	0xbed16f21	-0.40905097
25	0xbb90ee63	-0.004422949
26	0xbdc59a9d	-0.09648631
27	0xbdbb889b	-0.09156915
28	0xbe347bfe	-0.17625424
29	0xbe0cd958	-0.13754785
30	0xbdb61b9f	-0.08891987
31	0xbe3ecdf0	-0.18633246
32	0xbd7ff5ba	-0.062490202
33	0xbdfbdea2	-0.12298323
34	0xbb7f0849	-0.003891485
35	0x3b065429	0.002049694
36	0xbea2422a	-0.31691104
37	0xbe3aed0b	-0.18254487
38	0xbeb09ef3	-0.3449627
39	0xbe6205db	-0.22072546
40	0xbdfe9c20	-0.12432122
41	0xbe46656f	-0.19374631
42	0xbe7894de	-0.24275538
43	0xbdc849f1	-0.09779728
44	0xbe7ec9fc	-0.24881738
45	0x3daafc29	0.08348877
46	0xbe9abc56	-0.30221814
47	0xbe124e73	-0.14287739
48	0x3b64d1f6	0.0034915186
49	0x3d447ff9	0.047973607
50	0xbe231f4d	-0.15929909
51	0xbece862f	-0.4033675
52	0xbe752b1b	-0.23942225
53	0xbdfe9313	-0.12430396
54	0xbd771861	-0.060325984
55	0xbec1cf0b	-0.37853274
56	0xbd1ff4a2	-0.03905166
57	0x3e214fa1	0.15753032
58	0xbe467f57	-0.19384514
59	0x3d8098e7	0.06279164
60	0xbe7c296b	-0.24625175
61	0xbeaf51a8	-0.34241986
62	0xbe8c28dc	-0.27374923
63	0xbc34f41c	-0.011044528
64	0xbe846a8e	-0.25862545
65	0xbe09801d	-0.13427778
66	0xbe54c2d2	-0.20777443
67	0xbe444f70	-0.19170928
68	0xbe87d929	-0.26532868
69	0xbe028469	-0.12745823
70	0xbc25ea58	-0.010126673
71	0xbe85c45c	-0.26126373
72	0x3d72422a	0.05914513
73	0xbe3fec43	-0.1874247
74	0xbded0e96	-0.11575048
75	0xbe023d08	-0.12718594
76	0xbea99c94	-0.33127272
77	0xbe8b114a	-0.27161628
78	0xbe125e71	-0.14293839
79	0xbe1a13cb	-0.15046613
80	0xbea7b66d	-0.32756367
81	0xbedd3c07	-0.4320986
82	0xbdce80b2	-0.100831404
83	0xbdf0fde2	-0.11767174
84	0xbd42e694	-0.047583178
85	0xbcd19754	-0.025584854
86	0x3d9ac5f7	0.0755729
87	0x3c1888fa	0.0093100015
88	0xbde3215a	-0.11090346
89	0xbe7afd2e	-0.24510643
90	0xbe667a3b	-0.22507565
91	0xbe9af733	-0.30266723
92	0x3e5c1f4d	0.21496315
93	0xbee7ead6	-0.45296353
94	0xbe1178aa	-0.14206186
95	0xbde9834e	-0.114019975
96	0x3c801bc0	0.015638232
97	0xbe240b18	-0.16019857
98	0xbe2b235c	-0.16712707
99	0xbe0f0fc9	-0.13970865
100	0xbdd92502	-0.10602762
101	0xbd96c97a	-0.07362647
102	0xbda40746	-0.080092
103	0xbde755b7	-0.11295646
104	0xbe67aa5b	-0.22623579
105	0x3daa7a81	0.08324147
106	0xbe96de7c	-0.29466617
107	0xbeb82907	-0.359688
108	0xbd213d30	-0.039364994
109	0xbe1af8b4	-0.15133935
110	0xbe931c2d	-0.28732434
111	0xbe8381c8	-0.25684953
112	0xbd8ef972	-0.06981172
113	0xbea22333	-0.3166748
114	0xbe680bad	-0.22660704
115	0xbe2d793a	-0.16940776
116	0xbe8f06f2	-0.27934986
117	0xbe00ebd8	-0.12589967
118	0x3dbf345f	0.09336161
119	0xbde86abb	-0.11348482
120	0x3d919804	0.07109073
121	0xbc92c1ea	-0.017914731
122	0xbe286996	-0.16446528
123	0xbe08024c	-0.13282126
124	0xbe577b89	-0.21043219
125	0xbe84ec71	-0.2596164
126	0xbc832c7d	-0.016012425
127	0xbdddb60a	-0.10825737

mlp.6.weight f4 [16, 128]
0	0xbc7a1e23	-0.015265974
1	0xbcb987b8	-0.022647724
2	0xbdaf58bb	-0.08561846
3	0x3d8c9d9b	0.06865998
4	0x3d4e3477	0.050343003
5	0xba3ad217	-0.0007126643
6	0xbd2511ce	-0.040300183
7	0xbb1d78d0	-0.0024028309
8	0xbdca8648	-0.09888893
9	0x3d3a39f2	0.045465417
10	0x3c925e81	0.017867329
11	0x3dccf3ff	0.10007476
12	0x3d37c43b	0.044864874
13	0x3d09a9ad	0.03360908
14	0x3d157272	0.036486097
15	0xbd1e2de7	-0.038617995
16	0x3c98cd36	0.01865254
17	0xbd1a3001	-0.037643436
18	0xbdcba5ff	-0.099437706
19	0xbc494d52	-0.012286501
20	0xbbe8b615	-0.007101784
21	0xbc389e6d	-0.01126824
22	0xbd4cbca0	-0.049984574
23	0x3c50ac54	0.012736399
24	0xbdeb1ce7	-0.11480122
25	0x3c8985e9	0.016787486
26	0x3d290118	0.04126081
27	0x3ce3886a	0.027775008
28	0xbbe240b3	-0.0069046854
29	0x3d989b5f	0.0745151
30	0xbd1577d9	-0.03649125
31	0xbb20105b	-0.002442381
32	0x3d3a1cd3	0.045437645
33	0xbd719313	-0.05897815
34	0x3df0a8a1	0.117509134
35	0xbd0c8803	-0.0343094
36	0xbd56b474	-0.052418187
37	0x3c57a640	0.013162196
38	0xbca30d44	-0.019903786
39	0x3e819784	0.2531091
40	0xbba86967	-0.005139518
41	0x3d4ed50c	0.050496146
42	0x3cda1d68	0.02662535
43	0xb72f38d8	-1.0444048e-05
44	0xbe1e2165	-0.15442427
45	0x3d3020d8	0.043000072
46	0x3d905990	0.07048333
47	0x3d2d76a7	0.042349484
48	0xbdb4cd9c	-0.088282794
49	0xbcea6e69	-0.0286171
50	0x3d4f2b34	0.05057831
51	0xbe196e48	-0.14983475
52	0x3b8b681b	0.0042543537
53	0xba46b364	-0.0007579832
54	0xbcabe691	-0.020983966
55	0x3a08fea0	0.00052259304
56	0x3b697914	0.0035625147
57	0xbc0524ed	-0.00812648
58	0xbd12a0b4	-0.03579779
59	0xbce16892	-0.027515683
60	0xbd853b31	-0.065054305
61	0x3be9a52b	0.0071302853
62	0xbe13073b	-0.14358227
63	0x3d506f47	0.050887372
64	0x3d6367f2	0.05551905
65	0x3d6fc2a5	0.058535237
66	0xbc7b43bd	-0.015335974
67	0x3ca33f23	0.019927567
68	0x3c94fa2c	0.018185697
69	0x3b01de88	0.0019816477
70	0xbc26c981	-0.010179878
71	0xbde83ddf	-0.11339926
72	0xbd43bdee	-0.047788553
73	0x3e3f7c3c	0.18699735
74	0x3b9ac0d8	0.004722696
75	0x3bec3ef3	0.0072096526
76	0x3bdb06ca	0.006684159
77	0x3d2822fa	0.04104898
78	0x3cfde5f3	0.030993437
79	0x3d232068	0.039825827
80	0xbd66d6fe	-0.056357376
81	0x3e12570e	0.14291021
82	0xbcc2b799	-0.023769187
83	0x3d257d63	0.04040278
84	0xbc0300fa	-0.007995838
85	0xbd011b39	-0.031520102
86	0x3c4082de	0.011749951
87	0xbd967d32	-0.07348098
88	0xbb9fcfa0	-0.0048770458
89	0xbb868307	-0.004104975
90	0xbd6fa634	-0.058508113
91	0xbd3f6503	-0.04672719
92	0x3c451877	0.012029759
93	0x3db4f0a7	0.08834963
94	0xbcf46e1a	-0.029837657
95	0xbc2b0ad0	-0.01043959
96	0x3dbf376c	0.09336743
97	0x3e0f8e09	0.14019026
98	0xbc57d81b	-0.013174082
99	0xbc50e498	-0.0127498135
100	0xbc4e4b08	-0.012591131
101	0xbd066d2f	-0.03281897
102	0x3b5f43a6	0.0034067421
103	0xbc774b1a	-0.015093589
104	0x3d5a541d	0.053302873
105	0x3dd935ef	0.1060599
106	0x3db51118	0.08841151
107	0xbe1fb7db	-0.15597479
108	0xbc4c7fac	-0.012481611
109	0xbdd0d7f3	-0.10197439
110	0x3a12cb2b	0.00055997324
111	0x3d23323c	0.03984283
112	0x3c0a0985	0.008425121
113	0xbd9abde0	-0.07555747
114	0xbc017b14	-0.007902879
115	0x3a664279	0.0008783709
116	0xbd6e8d8e	-0.058240466
117	0xbc33936a	-0.010960439
118	0x3c095c99	0.008383893
119	0xbc478974	-0.0121787675
120	0x3ab74402	0.001398206
121	0xbcef4049	-0.029205458
122	0xbd6d3866	-0.057915114
123	0x3cdae5ae	0.026720848
124	0x3cbaabaa	0.022786934
125	0xbd1781a3	-0.036988866
126	0x3d1221b7	0.035676684
127	0xbcefde6d	-0.029280866
128	0xbcdcda63	-0.026959604
129	0x3d21ca66	0.039499663
130	0x3c74d510	0.014943376
131	0x3c88d151	0.016701372
132	0xbc3cd389	-0.011525043
133	0x3b3db4d0	0.0028946884
134	0xba04be7b	-0.0005063784
135	0x3e360899	0.17776717
136	0x3d3d5343	0.046221983
137	0xbda05078	-0.07827848
138	0x3cac225d	0.02101248
139	0xbbf6e60d	-0.0075347484
140	0x3c2a8172	0.010406839
141	0xbd105efa	-0.035246827
142	0x3cb46202	0.02201939
143	0x3c8735da	0.01650517
144	0xbc180452	-0.009278374
145	0x3cf85063	0.030311769
146	0x3ca845a1	0.020541014
147	0x3ca0bfc1	0.019622685
148	0x3c98905f	0.018623529
149	0xbc9d8cdf	-0.019232212
150	0xbd07c822	-0.033149846
151	0x3c820fb7	0.015876634
152	0xbbefc695	-0.007317374
153	0xb833abf4	-4.283707e-05
154	0xbcb53923	-0.022121971
155	0x3cfce5e5	0.030871341
156	0xbccd2d62	-0.025046054
157	0xba7467de	-0.0009323339
158	0xbd9c7f76	-0.07641499
159	0xbda46378	-0.08026785
160	0xbde82952	-0.11336006
161	0xbd871deb	-0.06597503
162	0x3c99e2ec	0.018784963
163	0x3d112794	0.035438135
164	0x3d8996b7	0.067182
165	0xbc0b3e40	-0.008498728
166	0xbd913771	-0.07090653
167	0x3bc3cb90	0.0059751943
168	0xbdb78792	-0.08961405
169	0x3d898e44	0.06716588
170	0x3c91e5d3	0.017809784
171	0xbd537ab7	-0.051630702
172	0xbe14fa12	-0.14548519
173	0x3d24dc9d	0.040249456
174	0xbd14fbab	-0.03637282
175	0xbb20a625	-0.0024513092
176	0xbd086b4e	-0.03330546
177	0x3cca5f07	0.024703516
178	0x3c6fe9ca	0.014643142
179	0xbd67d4e2	-0.056599505
180	0x3d655032	0.055984683
181	0x3db4a23f	0.088200085
182	0x3aa40b67	0.0012515605
183	0x3d72ffb2	0.05932588
184	0x3d14d501	0.03633595
185	0xbc0e3735	-0.008680155
186	0xbcbad9fe	-0.022809025
187	0x3c0cbc75	0.0085898535
188	0x3b9318a0	0.0044890195
189	0xbd7394d0	-0.05946809
190	0x3c6cb1d2	0.014446693
191	0x3d5d317a	0.054002263
192	0x3d499132	0.049210735
193	0xbc702fdf	-0.014659851
194	0x3b6bddf4	0.0035990449
195	0x3bd25f6b	0.006420066
196	0xbd39db5b	-0.04537521
197	0xbcc726b7	-0.024310453
198	0x3d5fa998	0.054605097
199	0xbccacb4f	-0.024755148
200	0xbcb40ac6	-0.021977793
201	0xbcb22cbd	-0.021749848
202	0xbc5dff56	-0.013549646
203	0x3d723ba7	0.05913892
204	0x3c8df9b4	0.017330982
205	0x3cb66f1e	0.022269782
206	0xbd5acfe3	-0.053420912
207	0xbd6ade27	-0.057340767
208	0xbbec9694	-0.0072200987
209	0x3d2d5cb3	0.042324733
210	0x3c06b1a8	0.0082210675
211	0x3d3bb849	0.045830045
212	0x3ca0b279	0.019616352
213	0xbca7c738	-0.020480737
214	0x3ce56eb2	0.028006885
215	0x3d9b2afa	0.075765565
216	0xbce09703	-0.027415758
217	0x3da033bd	0.07822368
218	0xbcb8afd8	-0.022544786
219	0xbdb1c1e7	-0.08679562
220	0x3d19adde	0.03751933
221	0x3bafd52e	0.005365989
222	0x3b823433	0.003973508
223	0xbcadfcd7	-0.021238727
224	0x3ba56abc	0.005048124
225	0x3cab573e	0.020915624
226	0x3c2ab2a7	0.010418571
227	0xbaed1ab4	-0.0018089623
228	0xbd092428	-0.033481747
229	0x3ca6832f	0.020326225
230	0x3c268075	0.0101624625
231	0x3d7f6adf	0.06235778
232	0x3dc158af	0.09440743
233	0xbc928aa6	-0.017888378
234	0xbd976b9c	-0.07393572
235	0xbd0ae202	-0.033906944
236	0x3b14aceb	0.0022686075
237	0x3cc7d437	0.024393184
238	0x3cbfa8f6	0.023395997
239	0x3cd84cbc	0.026403777
240	0xbc0cd767	-0.008596278
241	0xbd105fc5	-0.035247583
242	0x3cde58c2	0.027141932
243	0x3ceb1182	0.028694872
244	0x3d8660f3	0.0656146
245	0x3b856da7	0.0040719095
246	0xbb56c9ea	-0.0032774159
247	0xbc95c4a2	-0.018282238
248	0x3c7cee69	0.015437701
249	0xbceceac0	-0.028920531
250	0x3d21f669	0.039541636
251	0x3d99acd5	0.07503668
252	0x3cba8a3b	0.022770992
253	0x3a94ad07	0.001134307
254	0xbe09a8e8	-0.13443339
255	0xbd8c17e2	-0.06840493

mlp.6.bias f4 [16]
0	0x3d010675	0.0315003
1	0x3d9a1085	0.07522682
2	0xbdc701fc	-0.09717175
3	0xbda396e5	-0.07987765
4	0xbd7fe7cd	-0.06247692
5	0xbdb7eec1	-0.089810856
6	0x3d927115	0.07150475
7	0x3bcdb8a5	0.006278115
8	0xbf3bc606	-0.73349035
9	0xbf4a6244	-0.7905619
10	0xbea06603	-0.3132783
11	0xbefc6fef	-0.4930415
12	0xbf3433dc	-0.7039163
13	0xbf501cb1	-0.8129378
14	0xbec2662b	-0.37968573
15	0xbf12e6e6	-0.57383573
